fraud_pred (2).onnx (onnx, 2626 bytes, 5 tensors)

coefficient f4 [49, 5]
0.41482884 -0.04297943 -0.32707933 -0.04145016 0.13041304 -0.0123371035 -0.0034704541 -0.31834763
0.014115621 0.04732134 0.2713557 -0.027607484 0.120014 -0.028137526 -0.1611073 0.25372937
-0.02965505 -0.11528725 0.02976492 0.3645574 0.29425043 0.015565983 -0.065259166 -0.13825724
0.035975855 0.09277442 -0.0029295895 -0.30254048 -0.06655411 -0.23332736 1.969949 2.4995458
-0.10837216 0.77881634 -0.677436 2.2784538 2.7045047 0.029015452 0.826624 -0.6685747
2.579239 2.5593119 0.10402124 1.1251541 -0.51797175 2.3822215 2.3984878 -0.09069501
0.93158245 -0.5625045 2.3828506 2.7303326 0.03851556 -0.033090964 -0.57244503 2.4786158
2.5849001 0.10839669 0.57726234 -0.6195251 -0.7201711 -1.4605919 0.14173289 -0.2566497
-0.063293986 -0.74343455 -1.4937254 0.20513566 -0.22281994 -0.23756695 -0.89755887 -1.4898988
-0.043961912 -0.13131684 0.108885534 -0.7938684 -1.3692418 -0.05565987 -0.49793613 0.5529464
-0.98142827 -1.4205697 -0.051363215 -0.26577586 0.40170684 -0.7567391 -1.3530431 -0.05010299
-0.6563791 0.0045745363 -0.6376282 -1.404762 0.07810916 -0.19541793 0.49746126 -1.3147161
-1.3360153 -0.12035769 -0.47501904 0.5109747 -0.8842737 -1.3326902 0.11207758 -0.6040968
0.26599723 -0.9058513 -1.4910517 -0.21710882 -0.10873223 0.4178714 -0.53272915 -1.5278571
-0.053752806 -0.07983234 0.33000913 -0.8569924 -1.4416332 -0.21206509 -0.2863277 -0.13037448
-0.7454475 -1.5181742 -0.15468305 -0.15730706 0.3678704 -0.5063468 -1.500218 0.11325971
-0.15284145 0.4616811 -0.6520888 -1.3796893 -0.25380737 -0.5582696 0.057169996 -0.6533983
-1.4809667 0.16954327 -0.17812173 -0.078113355 -0.97537565 -1.3545502 -0.27082416 -0.5016744
0.57374734 -0.116205856 -0.01070059 -0.32359296 -0.023481168 0.1111382 0.7318452 0.2965531
-0.80130494 0.10053789 -0.037461262 1.5657349 0.35678935 -0.3297195 0.48530918 -0.36915195
1.1157886 0.30203977 -0.46391588 0.27955717 -1.0434295 -0.6994729 -0.08110544 -0.4083328
0.122944444 0.19286352 0.7328356 0.046252344 0.08902314 -0.1127991 -1.4778308 -0.063830666
-0.0033219422 0.5083031 0.20172149 -0.73518467 0.4629018 -0.035159953 -0.24981934 0.28384492
-0.6814538 -0.9042712 0.23279616 -0.9217959 -0.31939498 3.6581182 -0.15150283 -0.09604051
0.24199958 0.09943503 -0.67485696 -0.26499167 -0.07242483 0.58566046 0.08017541 -0.67713
0.32763913 -0.00590936 0.20834793 -0.42416477 -0.8583277 -0.7165876 -0.4531051 -1.0614522
0.5744562 3.712534 -0.32043174 -0.009750461 -0.32943532 0.09276361 0.43434232 0.26774347
-0.11191767 -0.30779982 0.16838402 0.16069487 0.22466302 -0.07786825 0.19008891 0.13003838
0.061571393 0.82429874 -0.07508974 -0.23832315 0.020252183 -0.2171538 -0.09183399 -0.08017468
-0.10253413 0.2915344 0.4531325 -0.23788582 -0.064912066 0.10390426 0.17116538 -0.02236478
0.020639943 -0.06459053 -0.39438084 0.36647433 -0.27683207
00000000: 7264 d43e 330b 30bd f176 a7be a5c7 29bd
00000010: ff8a 053e 9021 4abc 8f70 63bb 76fe a2be
00000020: 3545 673c 05d4 413d 22ef 8a3e 1729 e2bc
00000030: e6c9 f53d ab80 e6bc 50f9 24be d1e8 813e
00000040: 26ef f2bc b91b ecbd 90d5 f33c 44a7 ba3e
00000050: fea7 963e 7708 7f3c 99a6 85bd 4e93 0dbe
00000060: 6b5b 133d 8400 be3d 5bfe 3fbb 96e6 9abe
00000070: 854d 88bd 5eed 6ebe 4a27 fc3f 8ff8 1f40
00000080: 39f2 ddbd 8260 473f 726c 2dbf 30d2 1140
00000090: 9b16 2d40 d0b1 ed3c a19d 533f b627 2bbf
000000a0: 4012 2540 c4cb 2340 1609 d53d 0d05 903f
000000b0: cc99 04bf 5176 1840 d380 1940 4ebe b9bd
000000c0: 307c 6e3f 4b00 10bf a080 1840 c5bd 2e40
000000d0: 7ec2 1d3d 648a 07bd c28b 12bf a4a1 1e40
000000e0: 016f 2540 15ff dd3d 77c7 133f 3299 1ebf
000000f0: 225d 38bf adf4 babf 6d22 113e 9767 83be
00000100: 47a0 81bd ba51 3ebf 6532 bfbf 150f 523e
00000110: e92a 64be c044 73be 6bc6 65bf 01b5 bebf
00000120: 6811 34bd ec77 06be 61ff de3d f63a 4bbf
00000130: 5143 afbf 9bfb 63bd 7cf1 febe e58d 0d3f
00000140: e23e 7bbf 3ad5 b5bf 3c62 52bd c613 88be
00000150: 85ac cd3e a7b9 41bf 8430 adbf cb38 4dbd
00000160: 7608 28bf fee5 953b 9a3b 23bf 3ecf b3bf
00000170: b2f7 9f3d a31b 48be 3eb3 fe3e 9e48 a8bf
00000180: 8d02 abbf 187e f6bd b235 f3be 3dcf 023f
00000190: c35f 62bf 9895 aabf ee88 e53d 16a6 1abf
000001a0: ca30 883e dfe5 67bf c8da bebf c651 5ebe
000001b0: 01af debd 3df3 d53e f060 08bf d290 c3bf
000001c0: e72b 5cbd 237f a3bd f5f6 a83e db63 5bbf
000001d0: 7087 b8bf 9727 59be 8b99 92be e380 05be
000001e0: a6d5 3ebf 8853 c2bf 3c65 1ebe 1a15 21be
000001f0: 8259 bc3e f29f 01bf 2507 c0bf b5f4 e73d
00000200: 7882 1cbe 7761 ec3e 4bef 26bf a999 b0bf
00000210: 0af3 81be c2ea 0ebf 162b 6a3d 1c45 27bf
00000220: 5190 bdbf c09c 2d3e 8b65 36be e5f9 9fbd
00000230: 38b2 79bf e761 adbf 77a9 8abe bc6d 00bf
00000240: 1be1 123f 56fd edbd 8751 2fbc faad a5be
00000250: 945b c0bc 6d9c e33d 355a 3b3f cfd5 973e
00000260: 5222 4dbf cfe6 cd3d fb70 19bd 006a c83f
00000270: 18ad b63e ffd0 a8be 727a f83e 7c01 bdbe
00000280: 29d2 8e3f f5a4 9a3e 6286 edbe 1e22 8f3e
00000290: 198f 85bf a810 33bf 9c1a a6bd ff10 d1be
000002a0: 4cca fb3d 047e 453e 1d9b 3b3f 1973 3d3d
000002b0: c451 b63d 3703 e7bd 8f29 bdbf a7b9 82bd
000002c0: f1b4 59bb 2720 023f 1490 4e3e 1035 3cbf
000002d0: 7701 ed3e e203 10bd a4d0 7fbe 1f54 913e
000002e0: c273 2ebf 517e 67bf 1e62 6e3e d1fa 6bbf
000002f0: bd87 a3be 9c1e 6a40 8f23 1bbe e3b0 c4bd
00000300: bdce 773e 98a4 cb3d 6dc3 2cbf fdac 87be
00000310: 7853 94bd d8ed 153f 0133 a43d 6458 2dbf
00000320: 51c0 a73e 4ea3 c1bb 2959 553e 202c d9be
00000330: 5dbb 5bbf 4972 37bf 64fd e7be aadd 87bf
00000340: 900f 133f 289a 6d40 a10f a4be 66c0 1fbc
00000350: bfab a8be d9fa bd3d 1e62 de3e ac15 893e
00000360: 1735 e5bd f097 9dbe dc6c 2c3e 328d 243e
00000370: 100e 663e 6479 9fbd aba6 423e c828 053e
00000380: 4932 7c3d 3e05 533f a6c8 99bd fc0a 74be
00000390: e8e7 a53c 915d 5ebe 7513 bcbd 9f32 a4bd
000003a0: 6afd d1bd ff43 953e fc00 e83e 5798 73be
000003b0: 9ef0 84bd c2cb d43d fa45 2f3e 5836 b7bc
000003c0: 1915 a93c 0a48 84bd 49ec c9be 86a2 bb3e
000003d0: efbc 8dbe

intercepts f4 [1, 5]
3.4320703 1.3526802 -1.0206304 0.7742356 -1.4621614
00000000: 0aa7 5b40 a024 ad3f 04a4 82bf 4e34 463f
00000010: 1b28 bbbf

coefficient1 f4 [5, 2]
-0.37448183 0.39033356 -1.1634494 4.3132806 -0.24990734 -0.51656014 -0.8112672 1.1219474
0.36529452 -0.45424172
00000000: 15bc bfbe cdd9 c73e e9eb 94bf 6506 8a40
00000010: b6e7 7fbe 493d 04bf 35af 4fbf f99b 8f3f
00000020: e207 bb3e 5f92 e8be

intercepts1 f4 [1, 2]
1.1911565 -0.6980252
00000000: d177 983f c8b1 32bf

coefficient2 f4 [2, 1]
-2.9956913 1.693763
00000000: 68b9 3fc0 3acd d83f
